data.pth (torch, 4823 bytes, 6 tensors)

l1.weight f4 [8, 47]
000000 f8 de 08 bf 6c 30 14 3f 54 f3 3f 3e 0a df 08 bf
       -0.53465223 0.57886386 0.18745166 -0.5346533
000010 68 fc c1 3e e5 df 08 bf a0 ed b6 3e 5d 64 fe 3e
       0.37887883 -0.53466636 0.35728168 0.49685946
000020 01 3a 3c 3f c0 f4 fc 3e 2e b6 4f 3e cc 43 5b 3f
       0.73526007 0.4940548 0.2028434 0.85650325
000030 7d 84 95 bc 36 39 eb 3e 99 50 0a 3f a0 d4 5c 3e
       -0.018251652 0.45942086 0.5402923 0.21565485
000040 8c 21 13 3f b8 7d 13 bf 48 dd 08 bf 0c 36 07 3e
       0.57473063 -0.57613707 -0.5346265 0.13204211
000050 b9 20 c2 be 8a e0 fd be 91 e1 fb 3d c3 a4 0e 3f
       -0.3791559 -0.49585372 0.12298883 0.55720156
000060 84 7a 14 3f 76 33 0e 3f db d1 f3 be 3e a7 0c 3e
       0.57999444 0.55547273 -0.47621045 0.13735673
000070 94 ce 14 3f be 0b 08 3c 85 d6 e1 3d ac 9f 44 3f
       0.58127713 0.008303581 0.110272445 0.7680614
000080 4d bf 1e be 2b 94 34 3e 67 fd ac be 03 07 60 be
       -0.15502663 0.17634647 -0.3378708 -0.21877675
000090 0a 18 40 bf 3b c7 12 be a6 5d 2a 3d 7a b7 56 3f
       -0.7503668 -0.14333813 0.041593216 0.83873713
0000a0 8b e1 18 be 80 76 9c 3e 4f 7a 2e 3f b1 dc 81 bd
       -0.14929788 0.30559158 0.6815538 -0.06340922
0000b0 4d 21 17 3f d8 71 b6 3e 2f 1a 25 bf e3 7a be bd
       0.5903519 0.3563373 -0.6449308 -0.093007825
0000c0 f8 f5 ec 3d c0 05 e5 bb 34 24 26 3d 0d d0 98 bd
       0.11570352 -0.006989211 0.04056187 -0.074615575
0000d0 00 bf 28 bb 3d 0d 13 be 17 64 e6 bd 79 2a 8a bd
       -0.002574861 -0.14360519 -0.112495594 -0.06746382
0000e0 40 b5 7f 3d ae c3 16 bd d8 e7 c1 3d f8 f4 b0 bc
       0.062428713 -0.03680771 0.09468049 -0.021601185
0000f0 80 c6 64 bb f8 8a af bd 2f 0a 0a be 60 60 56 3d
       -0.0034908354 -0.08571428 -0.13480447 0.052338004
000100 7c cf 90 3d 42 b2 0f bd bc 74 ac bc 50 45 59 bc
       0.070708245 -0.03508211 -0.021051757 -0.013261154
000110 96 8f 8f 3d 76 90 02 be 50 d1 51 3d c5 af fc 3d
       0.07009809 -0.1275042 0.051225007 0.12338213
000120 98 28 99 bd 76 ac 98 bd de e9 96 3d 90 41 03 3d
       -0.07478446 -0.07454769 0.073688254 0.032044947
000130 04 ad 2e 3d fe ea 67 bd a3 b6 01 be 7e d5 14 3e
       0.04264547 -0.05662059 -0.12667327 0.14534566
000140 b0 66 94 bc 30 34 fb 3d ba bd 5e bd b0 f1 a6 bc
       -0.018115371 0.12265813 -0.054380156 -0.020378917
000150 8c 92 2c 3d c5 47 e4 bd 89 fb f7 bd 28 1c 0a 3d
       0.042131945 -0.111465015 -0.121085234 0.03371826
000160 00 b8 8a 3b 90 fc c6 3c 69 45 bb bd ae c9 2a bd
       0.0042333603 0.024290353 -0.09144098 -0.041696243
000170 9c 33 3c 3d 14 47 b2 bc 8b a4 00 bf c4 24 83 3f
       0.045947656 -0.021762408 -0.5025107 1.0245595
000180 eb a1 14 3d 57 e3 51 3f 95 7f ed 3e b4 a5 00 bf
       0.03628723 0.8198752 0.463864 -0.5025284
000190 b5 0f d8 3e 61 d4 9b 3e 75 52 11 3f 13 a4 12 3f
       0.42199484 0.3043547 0.56766444 0.5728161
0001a0 69 22 5b be d1 69 a6 be 21 df 35 be e6 7f 1d 3e
       -0.21399845 -0.32502607 -0.17760898 0.1538082
0001b0 94 1c 33 3f 0e fb 78 3e 2d 4c e9 be c7 df 0f bf
       0.6996548 0.2431452 -0.4556593 -0.5620083
0001c0 27 a1 97 3e 77 ef 9e be a4 b1 fd 3d 60 ad 2f 3e
       0.29615137 -0.31042072 0.12387398 0.17155981
0001d0 14 10 f6 bd b4 a6 5f 3d 94 26 57 3f 7a 48 da 3a
       -0.120147854 0.05460234 0.8404324 0.001665368
0001e0 04 f7 8a 3d 3a 8e 1b be ab a8 49 3f 06 d3 c6 bd
       0.06785396 -0.15190974 0.7877299 -0.09708218
0001f0 61 23 fc bd f8 d6 0b 3d 91 a4 37 be fc 02 d0 3d
       -0.123114355 0.034140557 -0.17933871 0.10156819
000200 a4 1e e4 3e f9 f1 84 3e 36 cc 96 3d fa 09 99 3e
       0.44554627 0.2596586 0.07363169 0.29890424
000210 e7 63 41 3f 77 30 ac bd a0 d0 0d 3f 99 c7 11 be
       0.75543064 -0.084076814 0.5539646 -0.14236297
000220 8a 85 54 3e 0f dd e4 be eb 4b 14 3e c9 25 99 3e
       0.20754066 -0.44699904 0.14482085 0.2991164
000230 cd 47 c2 be 5a 7a 6e 3f cf 79 70 be e2 08 c7 3e
       -0.37945405 0.93155444 -0.23483966 0.38873965
000240 35 98 3b 3f 62 e3 a7 3d 6a 8f 71 3f 09 f5 4c 3e
       0.73279124 0.08197667 0.9435946 0.20015348
000250 4f d3 2c be da 11 1e bf da e4 24 bf 11 b7 8b 3e
       -0.16877483 -0.6174599 -0.644117 0.27288106
000260 2f b8 e9 3e 4f ac 5f 3e 45 6e 5c be ec 2c 0b be
       0.45648333 0.21843074 -0.2152644 -0.13591355
000270 a4 d8 8c bd 42 b9 96 be e2 50 41 3f 3b 68 86 3f
       -0.068772584 -0.29438215 0.7551404 1.0500559
000280 b7 62 17 3f 4c 13 04 3e cb 3b a1 be 01 b2 ea 3e
       0.59135 0.12897986 -0.3149093 0.4583893
000290 7d 8f cf be 77 70 c7 be 0e f1 07 bf cd 4b 02 bd
       -0.4053916 -0.3895299 -0.53102195 -0.03181057
0002a0 8e 9a c8 3e 03 d6 db be 44 5d 92 3e a4 fb ea 3e
       0.39180416 -0.42936715 0.2858678 0.45895112
0002b0 09 e8 d5 be 39 3a 1f 3f d1 39 bd 3e d1 cd 06 3f
       -0.4177859 0.62198216 0.36958173 0.526578
0002c0 9e 1f da 3e df b8 92 3f 99 f0 b0 3e df 03 d0 3e
       0.42602247 1.1462668 0.3455856 0.40627953
0002d0 3a 9e 43 bf 0e 1a ec 3e a4 8a dc 3e 2d a4 4f be
       -0.7641331 0.46113628 0.43074524 -0.20277472
0002e0 6a 87 4b 3f a8 75 c6 be ab 5a c2 be 89 35 41 3f
       0.795035 -0.3876164 -0.379598 0.75472313
0002f0 cf 4c 28 bf a6 e7 45 3f 3d 37 fc 3d 05 d3 04 3f
       -0.657422 0.7730659 0.12315223 0.5188449
000300 b6 18 08 3f b5 49 28 bf 78 ce 92 3e 48 10 20 3f
       0.53162706 -0.6573747 0.28673148 0.62524843
000310 bd f3 8b be 56 3b f3 3d ce 4c 89 3e af ad 85 3f
       -0.27334395 0.11876552 0.2681641 1.0443629
000320 59 7c 65 be 06 1a 1e be c2 6b 13 3f 8b 3c 2b 3e
       -0.22410716 -0.15439615 0.575863 0.16722314
000330 60 1f 10 bf 42 2f 19 3f 93 58 42 3f 9c cb fd 3e
       -0.56297874 0.59837735 0.75916404 0.49569404
000340 57 4a 28 bf ba d8 dd be df 5d dc 3e 97 95 d4 bd
       -0.65738434 -0.43329412 0.43040368 -0.103800945
000350 cc 03 45 3f ec 3f 98 be 86 50 28 bf 79 74 d3 3e
       0.7695892 -0.2973627 -0.6574787 0.412998
000360 b5 d3 87 3e fa 54 57 bc 87 f0 b8 bd 63 ae 44 be
       0.26528707 -0.013142819 -0.09030252 -0.19207148
000370 94 97 37 3d dd 76 60 3e 0d f0 35 3e 76 d7 fe 3e
       0.04482229 0.21920343 0.17767353 0.4977376
000380 87 09 0d 3f 13 af 10 3f ea bf 4b 3f b1 d9 1c bf
       0.5509266 0.5651714 0.7958971 -0.6126967
000390 aa 14 13 3e a5 8a 38 3e ca ef 38 be 06 ec 0d be
       0.14363351 0.18021639 -0.18060222 -0.13859567
0003a0 c1 d0 84 bd e0 b5 02 3f 77 2a 11 bf dd 17 b0 be
       -0.06485129 0.5105877 -0.5670542 -0.34393206
0003b0 92 23 58 3e 14 a7 b8 3e a1 4e 3a 3f c5 fd af 3e
       0.21107319 0.3606497 0.7277623 0.34373298
0003c0 b4 1d 8e be c6 0f 76 3e ec d4 a6 3d be b2 43 3e
       -0.27757037 0.24029455 0.081460804 0.19111153
0003d0 76 90 92 3d 2c 9d d1 3e 4e 2c 4f 3f 05 6e d7 3e
       0.0715646 0.40940225 0.8092698 0.42076126
0003e0 ba 3c d4 3e 08 1a cc 3e b3 54 87 bc a9 b0 02 3f
       0.4145258 0.3986361 -0.01651988 0.5105081
0003f0 52 e3 2e bf cc 0b 10 bf fd 78 d7 3e cb cb 0f bf
       -0.68315613 -0.56268 0.42084494 -0.5617034

l1.bias f4 [8]
000000 18 df 08 3f 9d 96 07 be 0b a4 00 3f 47 01 86 3f
       0.53465414 -0.13241048 0.5025031 1.046914
000010 07 44 28 3f 72 0e 10 3f 23 65 3c 3f 77 23 4b 3f
       0.657288 0.5627204 0.7359182 0.7935099

l2.weight f4 [8, 8]
000000 6d ce a2 3f 7e ba 98 3e 73 15 86 3f 5e eb 77 bf
       1.2719246 0.29829782 1.0475296 -0.96843517
000010 07 b6 05 bf 72 1d 89 3f d2 84 af 3f d2 33 8b 3f
       -0.52230877 1.0712111 1.3712409 1.0875189
000020 24 d3 98 be b5 eb 6a be fe 35 b9 3f 05 32 3d 3f
       -0.29848588 -0.22941478 1.4469602 0.7390445
000030 25 43 ea 3f c8 8e 4e be 7d 98 5f bf 42 a4 aa 3f
       1.8301741 -0.20171654 -0.87342054 1.3331378
000040 c8 61 02 3d d1 0a 35 be 5f 4c 5c be 1b 37 8e be
       0.031831533 -0.17679907 -0.21513508 -0.27776417
000050 c9 f0 84 3e 68 38 89 be 2c e4 db 3d c8 d7 c6 bd
       0.25964954 -0.26800847 0.1073688 -0.09709126
000060 2d e9 dd 3d e2 40 31 3e 3c 29 1f bd cc 58 b2 be
       0.108354904 0.17309907 -0.038857684 -0.34833372
000070 06 5e 94 3e 07 ec 99 bd ed 22 a5 be b0 28 d3 3d
       0.28977984 -0.07515722 -0.3225321 0.10310495
000080 bd 10 35 be 81 e8 86 be d0 6e 9f 3e 3c 64 c4 3e
       -0.17682166 -0.2634926 0.3113923 0.38357723
000090 6b f9 50 3f 03 7e 73 3f b7 b7 f3 be 94 c3 ac bf
       0.8163058 0.95114154 -0.476011 -1.3497186
0000a0 2e 58 a7 3f b3 1b 8f 3e 21 88 43 be 79 e6 bc 3e
       1.3073785 0.2795082 -0.19094898 0.36894587
0000b0 b1 dd 86 3f 8d d1 9e 3f f7 ae 9e 3f e3 27 92 bf
       1.0536405 1.24077 1.2397145 -1.1418422
0000c0 50 c9 42 bf 93 1c 0e 3e 13 ac 17 bf 37 bc 9f 3f
       -0.7608843 0.13878088 -0.5924694 1.2479314
0000d0 fd 6a 76 3f 6c 44 1f 3f c1 bf db 3d 59 e0 47 bf
       0.96257 0.6221378 0.107299335 -0.780767
0000e0 fc b4 46 bf a4 76 41 3c fa 09 39 bf 3a 6a 80 3f
       -0.7761991 0.011808071 -0.7228085 1.0032418
0000f0 46 67 87 bf b6 2f f3 be 1d 8d 50 3f 0f 4d 99 3f
       -1.0578392 -0.47497338 0.8146532 1.1976641

l2.bias f4 [8]
000000 13 77 a7 3e c2 64 99 3e ca 27 e0 bd 9e a8 96 be
       0.32708034 0.29959685 -0.10945089 -0.2942552
000010 ea b9 60 be 67 72 86 3e 5b 58 b6 3e 86 85 53 3f
       -0.2194592 0.26259157 0.35614285 0.82625616

l3.weight f4 [7, 8]
000000 15 24 e3 3e 03 7e 5e 3e 33 9f 9e 3e 8f a5 63 3e
       0.44363466 0.21727757 0.30980834 0.22231124
000010 de 78 db be 65 a7 d6 bf 7b 55 b3 bf 66 bf 66 3f
       -0.42865652 -1.6769835 -1.4010462 0.901358
000020 f9 69 32 bf 45 42 47 3e de 96 4f 3e 3f 8d a1 3d
       -0.6969295 0.19458874 0.20272395 0.07888269
000030 c9 3b 89 3f 6d 63 a4 be 38 2b de 3e 67 6e ae bf
       1.072137 -0.32107106 0.43392348 -1.3627442
000040 7a ca 83 bf 0c 96 54 bf ce 9e 25 3e ac a1 ce bd
       -1.0296166 -0.83041453 0.1617386 -0.1008943
000050 72 6a 8f bf ee 77 41 3e 6a 22 4f 3f 5e 74 8a 3f
       -1.120436 0.18893406 0.80911887 1.0816762
000060 6e bc 1c bc 15 6e af bf 75 bf 07 be 89 80 86 3d
       -0.0095664095 -1.3705469 -0.13256629 0.06567485
000070 07 ae d4 3e ef df 0a 3f 93 c3 0c 3f 02 04 2b bf
       0.41539022 0.54247946 0.5498592 -0.6680299
000080 42 06 a4 bf c4 db 42 3f 8d 2e 49 be d8 90 cc bb
       -1.281441 0.76116586 -0.19646664 -0.0062428527
000090 fd b3 8d bf 04 49 92 bf 6d 5c 67 3e 66 7f 8c 3e
       -1.1070553 -1.1428533 0.22593851 0.27440947
0000a0 6c 4b 5e 3f 01 bf d7 bf 60 6d 52 bc 3c 87 dd bd
       0.86833835 -1.6855165 -0.01284346 -0.108168095
0000b0 df 39 92 bf a0 b6 20 3f 52 58 b0 bf 49 76 94 bf
       -1.1423911 0.62778664 -1.3776953 -1.1598598
0000c0 7c db ee 3e f2 ee f1 3e 7a bc 1b 3e 18 b9 07 be
       0.46651828 0.47252613 0.15208617 -0.13254201
0000d0 fd c5 41 bf c7 90 75 bd 61 93 c0 bf 5c a9 5a bf
       -0.7569273 -0.059952524 -1.5044976 -0.8541467

l3.bias f4 [7]
000000 0c 40 7f 3e 9f 7d 6f be 6c 9f a6 bd ec 93 02 bf
       0.24926776 -0.23387764 -0.08135876 -0.5100696
000010 cd 86 cd 3d af 70 19 3e 65 87 12 3e
       0.10035477 0.14984392 0.14309461
