data.pth (torch, 6231 bytes, 6 tensors)

l1.weight f4 [8, 76]
00000000: 00bd 48bf 39bc 5a3f a4d8 cfbe 309e 613e
00000010: 91a7 1d3f 9460 c93e e13f 5ebf e869 183f
00000020: 5663 b1be 90c6 d93e 49bd 863e 5056 acbe
00000030: c1d2 f43e 8f92 0e3f f0b1 3ebe 8ee9 bc3e
00000040: 5e1c c4be a799 b73e bb4c f73e 6f77 933e
00000050: 749f b43e 2d96 133a 6ed5 2c3f 2f16 e2be
00000060: 9fa2 643f 58fe c93e 9a28 4d3f 3d65 4b3e
00000070: 2ed5 9b3e 3733 35bf 04f7 eebe 96b4 c7be
00000080: 5566 d03e ba9f cc3e d30d a8be d023 8cbe
00000090: 3aa5 16bf a8af debe b912 513f 1d48 913e
000000a0: 2b7b 9bbe 7472 523e 0c0b 46bf 5775 b93e
000000b0: 0cd0 d7be a258 d3be 318b 27be 8f27 833e
000000c0: 6827 09be 6efe 3bbe 7e38 d93e 3b71 3c3f
000000d0: 5e2f 8fbe b657 e8be 122b 343e fbb1 3bbe
000000e0: 580e 3d3e ed64 353f ebef a0bc 8c9c e0be
000000f0: e9f1 bb3e d373 65be fa39 48be 5bcc 9d3e
00000100: 847c d1bd d5c2 7bbe 2cec 033e f300 4b3e
00000110: 184e 113f ed10 8bbd 68e9 303e e2f7 113f
00000120: 4477 d43e a44d 38bf c15e dbbd e50c 8a3e
00000130: 7a6a 5c3e 5fd3 e03e d952 09be 8150 26bf
00000140: baa3 ab3e 06db 4d3c 2cc0 753e c29a 143e
00000150: 1d34 90be 77aa 113f 5dbe cebe 552d 1bbe
00000160: d35a b53e fc24 013f f7b8 38be 52da d43d
00000170: 424d acbe 1135 233d 0bf7 f63e a741 ab3e
00000180: de75 a03e 27bd 2abe 865b 76bc 6e79 03bf
00000190: ee22 803f 1f7b 2e3f 1ab6 403f 4c2e 503f
000001a0: af9c a43e c0cf 39bf 6248 c7be 8935 22be
000001b0: 87e5 47be 65f7 a33e 367d 66be abd6 86be
000001c0: e003 d6be 4bb3 f8be 4687 023f 8289 bcbe
000001d0: fbe2 7dbe bef4 bdbe b5cd 39bf edc1 ae3e
000001e0: 55c6 50be fe6d 29be 9a9d 9dbd b29c 153e
000001f0: 1f47 32be 6e3a 2e3d f3cd b5be 6d5d 593e
00000200: 74a6 9dbe b110 b0be 4165 c23e 6dca a4be
00000210: c626 dbbe dd6a 323f 03b4 abbe 5f3b dc39
00000220: e661 c53e cde1 35bf 0df9 16bf b542 943e
00000230: b435 ddbe 6e97 8bbe 764e d3bd e2fd 413e
00000240: c41f 17be 8eec b83b fc71 cbbe 076f 3d3f
00000250: bec1 0e3f a6c7 fe3e 5a8f 933e 24e2 a13e
00000260: 3fa0 2a3f fee6 f9be 85d0 133f 74ff 11bf
00000270: 67a2 9abe 3342 273e 9b20 143f 04fd 3b3d
00000280: 29b3 9ebe f6da 50be 81f2 01bf a14c 4dbe
00000290: 8866 593e dc1d 47be 4940 b63e 76ad 6a3e
000002a0: af61 363f 7e58 59be e378 92be 8df3 ca3e
000002b0: fc2e 4f3e 5225 c2bd 82db 18bd 736c 993d
000002c0: 27f7 9b3d 6fcd 1b3d 5fba dbbd 62f1 a63d
000002d0: 32f3 0dbe 0d92 5e3f 9798 083f 22b3 5fbe
000002e0: 0f1d cf3e ea43 703d 6a96 973e 87f1 62be
000002f0: cbe9 13bf fbe9 8cbe 98f3 cbbe bb3c b9bc
00000300: 84fb c93e 6a77 c3be 87e6 533f 8024 39bd
00000310: df7d b5be c5f1 3abe 3a56 d73e 77e2 803d
00000320: bd26 9f3e 9355 f13e 08a4 57be 8d52 363f
00000330: 2ffe 813e c478 f23e be36 6b3d c452 c3be
00000340: 4997 2dbe 8db0 1a3e d92c 22be 42bb 153f
00000350: 2285 1fbe 61c0 18bf f568 073e 4c48 14be
00000360: bb4d fdbe 2ffa c13e 272d 37be 9978 a93d
00000370: 5660 a4bd a3bf 343f 4540 26bd be19 4b3f
00000380: 6faa a1be 58b7 263f 961d 933e 9a15 4a3e
00000390: 253d 29be 7512 fb3e f9e7 a23e d820 0bbf
000003a0: dada 8e3e 9ca8 b13c 7307 3abe 9421 8c3d
000003b0: 8ba2 f7bd 3080 723e 3f47 a8be 8308 62be
000003c0: 08d7 2a3d b611 193e 39ec 8bbd e6bc eabd
000003d0: 8b65 76be 64eb 4b3e 2ba2 983e a6e8 0c3f
000003e0: 994f d1bd 6be7 efbb 07b4 9bbe 3826 05bf
000003f0: e6fc d0be 2fe0 9cbd 1a94 8dbe 95a3 763f
-0.7841339 0.85443455 -0.4059497 0.22033 0.6158381 0.39331496 -0.8681622 0.595366
-0.346461 0.42534304 0.26316288 -0.336596 0.47817042 0.5569238 -0.18622565 0.36896938
-0.38302892 0.35859415 0.48300728 0.28802058 0.35277903 0.0005629983 0.6751317 -0.4415755
0.8931064 0.3945186 0.8014008 0.19862838 0.3043608 -0.7078127 -0.46672833 -0.39004964
0.40703073 0.39965612 -0.32823047 -0.27371073 -0.58845866 -0.4349339 0.81669194 0.2837533
-0.30367407 0.20551473 -0.77360606 0.36222336 -0.42150915 -0.4127856 -0.16361691 0.25616118
-0.13393939 -0.18358776 0.42425913 0.73610276 -0.27965826 -0.45379418 0.17594555 -0.18329613
0.18462503 0.70857126 -0.019645652 -0.43869436 0.36708 -0.22407465 -0.19553366 0.30819973
-0.102288276 -0.24586041 0.12883061 0.19824581 0.56759787 -0.06790338 0.17276537 0.57018864
0.41497242 -0.7199347 -0.10711432 0.26962963 0.21524993 0.43911263 -0.1341051 -0.6496659
0.3352335 0.012564426 0.23999089 0.1451216 -0.2816476 0.56900734 -0.4037961 -0.15154012
0.35420856 0.5044706 -0.18039308 0.10393204 -0.33652693 0.03984553 0.48235354 0.33448526
0.31339926 -0.16673718 -0.015036469 -0.5135716 1.001066 0.6815662 0.75277865 0.81320643
0.3215079 -0.72582626 -0.3892241 -0.15840735 -0.19521151 0.32024685 -0.22508702 -0.26335654
-0.4179983 -0.4857429 0.5098766 -0.3682366 -0.24793617 -0.37100786 -0.7257951 0.3413233
-0.20388158 -0.16545865 -0.07696076 0.14610556 -0.17409943 0.04253619 -0.3550869 0.21227045
-0.30791056 -0.34387735 0.37967876 -0.3218569 -0.4280302 0.6969431 -0.33535776 0.00042005905
0.38551253 -0.7104767 -0.5897377 0.28957143 -0.43205035 -0.2726397 -0.103176996 0.18944505
-0.14758211 0.005643434 -0.397354 0.7399754 0.5576438 0.49761695 0.28820306 0.31617844
0.66650766 -0.48809046 0.5774005 -0.57030416 -0.30202028 0.16333847 0.5786225 0.04589559
-0.30996063 -0.20396027 -0.50760657 -0.20048763 0.21230519 -0.19444984 0.3559592 0.22917733
0.71242803 -0.21225163 -0.28607854 0.3963894 0.20232767 -0.094797745 -0.037318714 0.07491388
0.076155 0.038037714 -0.10728907 0.08151509 -0.13862303 0.86941606 0.53357834 -0.21845677
0.40451857 0.058658518 0.29606944 -0.22162448 -0.57778615 -0.27522263 -0.39834285 -0.022611966
0.39449704 -0.38177043 0.8277363 -0.045200825 -0.35447595 -0.1825629 0.42057973 0.06293195
0.31084242 0.471356 -0.21058667 0.7121971 0.2538924 0.47357762 0.057425253 -0.38149083
-0.16952242 0.15106411 -0.1583742 0.5848886 -0.1557813 -0.59668547 0.13223632 -0.14480704
-0.49473366 0.37886187 -0.17888318 0.08274955 -0.08026187 0.70604914 -0.040588636 0.79336154
-0.31575343 0.6512351 0.2873351 0.19734803 -0.16527231 0.4903752 0.31817606 -0.5434699
0.27901345 0.021686845 -0.18166904 0.06842342 -0.120915495 0.23681712 -0.32866856 -0.2207356
0.041708976 0.14948162 -0.06832165 -0.11461811 -0.24062173 0.19914013 0.29811224 0.55042493
-0.1022026 -0.0073212883 -0.30410787 -0.5201144 -0.40817946 -0.07659947 -0.27652055 0.96343356

l1.bias f4 [8]
00000000: 7c3d 5e3f 94cf 393f aa85 383f e41d 0b3f
00000010: 15ec 413f a020 833f 411c 7e3f 6734 223f
0.8681257 0.72582364 0.72078955 0.54342484 0.7575086 1.0244331 0.9926186 0.6336121

l2.weight f4 [8, 8]
00000000: 1c8d 923f ddeb bb3f 9a62 d7be 02c1 c63f
00000010: 758d 873f 621f 753f 670b 34bf b2aa 56bf
00000020: 587c d73f 5286 a83f bcc0 0a3f 6819 eb3e
00000030: 671c 87bf 31f6 cf3e f8e0 f03f d8bc da3d
00000040: a235 423f 9f0c bc3e 408f 4f3f 4c8b 313f
00000050: d5a5 133f 48ac 193f bed1 9bbf 41ca 36bf
00000060: 3f8f e9be 0c1e 403f 13a7 253f c8f3 963f
00000070: db3b d13e a05d cbbe 57d0 cc3e d280 c4bf
00000080: 0a69 073f f679 f23e 8469 993f f925 acbf
00000090: f3e2 993f 5e61 25bf 01d4 043f b981 5ebf
000000a0: 3119 163f 1057 93bf f24a 1ebf 7569 4bbf
000000b0: b9c2 513f c8db a33f c747 803e 6f58 e43f
000000c0: 91d8 90bf b5ce 1ebf 43c9 a53f af8c 80be
000000d0: 0639 843e fc2c b73f b9a5 ef3e dcda f3be
000000e0: 9059 8abd a6e5 1c3e 74d7 5ebe 01a8 b4be
000000f0: 2085 1bbd 1d56 37be 78ad 1d3d f803 7cbe
1.1449313 1.4681355 -0.42067415 1.5527651 1.0590044 0.9575101 -0.703299 -0.8385421
1.6834822 1.3165991 0.5420034 0.4591782 -1.0555543 0.40617517 1.8818655 0.1068055
0.7586309 0.3672838 0.8107796 0.69353175 0.57674915 0.60028505 -1.2173383 -0.71402365
-0.456171 0.7504585 0.6470806 1.1793146 0.4086598 -0.39719868 0.400027 -1.5351813
0.5289465 0.47358674 1.1985326 -1.3449088 1.2022384 -0.64601696 0.5188599 -0.8691669
0.5863219 -1.1510944 -0.6183311 -0.7945779 0.8193775 1.2801447 0.25054762 1.7839488
-1.1316091 -0.6203416 1.2952045 -0.25107333 0.25824755 1.4310603 0.46806124 -0.47627914
-0.06755364 0.15321979 -0.21761876 -0.35284427 -0.037968755 -0.17903943 0.03849551 -0.24610889

l2.bias f4 [8]
00000000: 4b9d 883e c4a9 103f deab 9bbe f7c3 383c
00000010: c5d4 fb3e cfd1 1e3f b1c5 083f 0087 b4bd
0.26682505 0.5650904 -0.30404562 0.01127719 0.49185768 0.6203889 0.53426653 -0.08814812

l3.weight f4 [10, 8]
00000000: 77e5 a3bf 8d22 a33d f7ab 92bf b5fc b4bf
00000010: 52cf fbbd 00cd 1abe 5f92 7e3f caaf 38be
00000020: 2739 1dbd 607e 19bf ef8a 05c0 9369 f5bf
00000030: dbb2 023f 7bbf 8b3f b742 f0bf 50ea 80bd
00000040: 9324 5cbf a83c 6b3e 7208 c8bf 9c70 a53f
00000050: 9eeb fc3e 0331 07c0 fc0f 273f fab5 4d3e
00000060: 5872 313f a97b bf3d 6f41 113f cfe0 293f
00000070: e331 c4bf 3692 d3bf 9c60 8fbf a006 f8bc
00000080: 84dc b93e 6822 df3e 7ec1 45bf 0673 e73d
00000090: d482 403f 297e b8bf 411b 0ec0 3f49 a93e
000000a0: 05e6 d9bf 6a4f 533f d759 c7bf 99db 99bf
000000b0: 5eb2 f1bf 8086 173f 0574 63bf 8a13 89be
000000c0: 8a64 c23e a791 e0be 9a28 f13e fc6a d6bf
000000d0: a1b4 b23e f9e9 dbbe 00df afbe a497 cd3d
000000e0: 6fd9 083e 8585 c9bf 7357 a3be 9e42 a9bf
000000f0: 933d 5abf 3350 e93e 0729 dc3e a545 a7be
00000100: 5c78 76be 4471 a9bf 5f7f ad3e 4c60 593f
00000110: 5ccf 1e3f d44e b5bf 5325 d53e a0fc 9fbd
00000120: 6033 0d3f d672 503f 7bfd 3fbf b790 03c0
00000130: 45f7 debf 5b6d e3be dbe9 abbf 0de3 823e
-1.2804402 0.079655744 -1.145873 -1.413962 -0.122954026 -0.15117264 0.99442095 -0.18035808
-0.038384583 -0.5995846 -2.0866048 -1.9172844 0.5105416 1.091781 -1.877036 -0.062946916
-0.8599331 0.22972357 -1.5627577 1.2924991 0.49398512 -2.1123664 0.65258765 0.2008895
0.693151 0.09349758 0.5674047 0.66358656 -1.5327724 -1.6528995 -1.1201358 -0.030276597
0.36301053 0.43580937 -0.7724837 0.11301236 0.7519963 -1.4413501 -2.2204134 0.33063695
-1.7023321 0.8254305 -1.5574292 -1.2020141 -1.8882558 0.59189606 -0.88848907 -0.2677272
0.3796733 -0.43861124 0.4710129 -1.6751399 0.34903434 -0.42951944 -0.34349823 0.10038689
0.13364194 -1.5743872 -0.31902656 -1.3223455 -0.85250205 0.45569 0.4300005 -0.32670322
-0.24069351 -1.3237691 0.3388624 0.8491256 0.62035155 -1.4164681 0.4163004 -0.07811856
0.5515652 0.81425226 -0.74996156 -2.0557077 -1.7419211 -0.4441937 -1.3430742 0.2556385

l3.bias f4 [10]
00000000: 3d67 423e a77f a63e c65a 5abe 4d43 3ebe
00000010: 6fa2 abbd 671f 67be 93fa d9be 2c0a 243d
00000020: 83e0 d8be 6ccf c6bd
0.18984695 0.32519266 -0.2132369 -0.1858036 -0.08380591 -0.22570573 -0.42573985 0.040048763
-0.4235879 -0.09707531
