data.pth (torch, 6231 bytes, 6 tensors)

l1.weight f4 [8, 76]
00000000: b22c b53c 5f4e 953f 9dfc ed3c 5dbf 903e
00000010: 8e4c babe 7a6e a33d ef8c cab9 c88e 2b3f
00000020: 23d2 c0be 68be 493f 2e9b 043f 1227 35be
00000030: c2bd 5d3d ea46 f1be e9e3 99bd 2eff 123d
00000040: b3dd 95bd efef 383f a631 ecbe 75d3 c33e
00000050: e1a2 7a3c 2c87 03be 5f49 0a3e 91f8 973e
00000060: 3e11 0abf 087c 913d c691 b0be c39c 6f3f
00000070: d4d4 ce3e 7d58 88be 245c ce3d 5430 86be
00000080: 880f 05bf 2d1b e13e 7c55 67be d687 76bd
00000090: 9b69 bbbe 48d2 a1be dc06 723f f144 213f
000000a0: 6e48 03be c41a 123f 27cb 82be 7310 c33e
000000b0: ec93 bfbc 778a 6cbe 0a24 47be 0712 f1be
000000c0: f26f 843e 89c7 81bd 843a 1d3f c301 06bf
000000d0: f623 ebbe 6bee 623e f26b b63e faf1 4b3e
000000e0: 54ab c13d a260 29bf 62b2 883e e488 9abd
000000f0: 4382 b5be 0e5a 4f3f b8a2 e83e ecaf 0e3e
00000100: 8786 473e c00a 973c d290 6abe 795f 833e
00000110: 007a 013f f19e 9a3e a028 213f ae95 113d
00000120: 4061 443f 24bb 38be 0092 4139 2f37 d83e
00000130: b007 0fbf 09db 183f dad7 6fbe 12b6 173f
00000140: 384a e63e 3748 8ebd c2a6 03bf 5030 0f3e
00000150: 26df 16bf 182d d43e ac94 99be 8b7b 1abc
00000160: 1217 643d fc3f 1e3e 4a56 02be c58e 06bd
00000170: 52cc cfbe 3750 88be 860e e63e eb9d 57be
00000180: bccd 9bbc 880a a9bd c367 383e bb03 32bf
00000190: 5b33 963f 47c2 393f 845a 593f f57a 3ebf
000001a0: fddd 24be 6713 3dbf f011 aebe a870 503d
000001b0: bca7 06bd 85eb d3bd afc8 b7be 6ad5 c0be
000001c0: fedd 9a3d 4d7a ecbe 107b 413f 3020 9dbe
000001d0: b562 febe 69c7 b3be b2bb 3cbf 8512 ddbd
000001e0: 705d 85be 771f 6bbc 0be1 79bd bceb 773e
000001f0: 6b97 6fbd 1b83 e4bd 1313 cabe c1ec 3ebf
00000200: d77a 06bf 440e 31be d244 bd3c 81dd 4d3e
00000210: b05b 943e da8b 433f 8268 603e 3da2 6abe
00000220: 7a03 2d3f 4a42 60bf c996 19bf 285c 0d3f
00000230: 2d3c 763e db81 04be 5786 443d 5558 0a3d
00000240: 4d56 c6be 86e3 ca3e e1ee 30be 1a21 cdbe
00000250: 06c6 d43e badd d5be 9d58 893d 4daf 16bc
00000260: bac2 3dbe 695d 21be a078 fa3d 1edc 0d3f
00000270: 18c1 8fbe faaa c73e 1bbe 1ebe ffec 4e3e
00000280: 393d 293f 27ab a3bd c59c f83e 0fb0 61be
00000290: 5798 983e 039f 06bf 63d7 db3d c68a a63e
000002a0: 8a4d a93e 7446 213f cc8b 89be c92e 123e
000002b0: 2a03 093f 8381 a03e 3781 2f3e db22 1c3f
000002c0: 77aa 0cbf b406 9ebe 898f 0cbf 464a 4f3f
000002d0: 8459 a73e 1b04 2a3f 164c b03e f7f3 2fbe
000002e0: ce30 e33e 47ed 903e 906b 0bbe 2185 c63e
000002f0: a2b0 debd a92d 143f 0d20 14be 551d e13e
00000300: 16bc 4bbe 8faa 183f 289f 383f 7a33 f63e
00000310: c0e7 fa3e 3af6 54be 1eb9 263f 0e85 06bf
00000320: 4dc4 833e 5e43 bcbd ed00 f73e 16d4 793f
00000330: 6e06 113f 244b e33c 1325 383e 99ba a03e
00000340: e5de f43e 35b5 34bf d162 e93e 9f09 a73d
00000350: 9a92 c3bc d723 603f 6545 1b3f d2cb 34be
00000360: bc08 d33e 9c1b a93c 3ea3 793e c536 a33d
00000370: 7132 373f 89ca 2cbf 0b64 203f 3014 393f
00000380: 6974 b9bd 63ba c2be 3b9f 31be 506d cb3e
00000390: 1cad 4d3f 2842 7dbe b5be 263f 0354 09bf
000003a0: e73c cd3e a6c8 8cbd e915 533f db7f 863b
000003b0: 8ad3 11bf 8a2e 58be daaf e23e d0f9 04be
000003c0: 1f33 d9bd 07f5 163f 5d96 cd3e c9ad 66bb
000003d0: 9024 5bbe 68ae 0f3f 5fe0 843e a9d9 453f
000003e0: df48 b9bd 573c 70bd 9908 10bc cc25 c53e
000003f0: ff4e 09bf 551f 45be 0f3e 09bf 3f85 8e3f
0.022116039 1.1664542 0.02905112 0.28271 -0.36386532 0.07980056 -0.00038633446 0.6701474
-0.37660322 0.7880616 0.51799285 -0.17690685 0.054136045 -0.47124416 -0.075141735 0.03588789
-0.073176764 0.7224111 -0.4613163 0.38247266 0.015297622 -0.12844533 0.13504551 0.2968183
-0.5393256 0.07103735 -0.34486216 0.93598574 0.4039675 -0.2663001 0.10076168 -0.26208746
-0.51976824 0.43966046 -0.22591203 -0.060188137 -0.36604008 -0.31605744 0.94541717 0.6299582
-0.12820598 0.5707209 -0.25545618 0.38098487 -0.023385964 -0.23099695 -0.19447342 -0.47084066
0.25866657 -0.063368864 0.6141741 -0.5234644 -0.45925874 0.22161262 0.3562923 0.19916525
0.09456506 -0.66163075 0.26698595 -0.07545641 -0.35450944 0.8099679 0.45436645 0.13934296
0.19484912 0.018437743 -0.22906807 0.25658777 0.5057678 0.30199388 0.62952614 0.035543136
0.7671089 -0.18040138 0.00018460304 0.42229602 -0.55871105 0.5970922 -0.23422185 0.5926219
0.449785 -0.06947368 -0.5142633 0.13983274 -0.5893425 0.41440654 -0.2999624 -0.009428869
0.055686064 0.15454096 -0.12728229 -0.032851 -0.40585572 -0.266237 0.44932956 -0.21056335
-0.019019 -0.08253962 0.18008332 -0.6953694 1.1734422 0.7256207 0.8490374 -0.7440637
-0.16100307 -0.7385773 -0.3399806 0.050888687 -0.032874808 -0.10347656 -0.35895297 -0.37662822
0.07561873 -0.46187058 0.75578403 -0.3068862 -0.49684682 -0.35113075 -0.737239 -0.10794548
-0.2604785 -0.0143507635 -0.061005633 0.2421102 -0.058494013 -0.11157819 -0.39467677 -0.7458001
-0.5253119 -0.17290598 0.023104105 0.20104028 0.28976202 0.7638527 0.21914867 -0.22913451
0.6758343 -0.8760115 -0.59995705 0.55218744 0.24046393 -0.12940161 0.04797968 0.033775646
-0.38737717 0.39626712 -0.17278625 -0.40064317 0.4155733 -0.41770726 0.06706355 -0.009197068
-0.18531314 -0.1575829 0.12230039 0.55414 -0.28077006 0.38997632 -0.15502207 0.20207594
0.66109043 -0.07991629 0.48557106 -0.22039817 0.29803726 -0.5258638 0.10734441 0.3252775
0.3306697 0.6299813 -0.2686447 0.1427566 0.5352045 0.3134881 0.17139135 0.60990685
-0.5494761 -0.3086449 -0.5490652 0.8097271 0.32685483 0.66412514 0.3443305 -0.17182909
0.44373173 0.28306028 -0.1361525 0.38773444 -0.10873534 0.5788217 -0.14465351 0.4396769
-0.19895968 0.5963525 0.72117853 0.48086149 0.49004936 -0.20797053 0.65126216 -0.52546775
0.25735703 -0.09192537 0.48242894 0.9758924 0.56650436 0.02774579 0.17982893 0.31392363
0.47826305 -0.70589 0.45583203 0.08156132 -0.023873616 0.8755469 0.6065276 -0.17655876
0.412176 0.020643048 0.24378678 0.07969431 0.7156134 -0.67496544 0.62652653 0.7229643
-0.090554066 -0.38032827 -0.17345898 0.39731836 0.8034227 -0.24732268 0.65134746 -0.53643817
0.40085527 -0.06874208 0.8245531 0.004104597 -0.5696341 -0.21111503 0.4427479 -0.12985921
-0.10605454 0.5896763 0.4015378 -0.00351988 -0.21400666 0.561255 0.25952432 0.7728525
-0.09047102 -0.058651295 -0.008791112 0.385054 -0.53636163 -0.19250233 -0.5361032 1.1134413

l1.bias f4 [8]
00000000: 173f 533f 06ea 3e3f 3aa5 0c3f c047 093f
00000010: 3831 423f a104 3b3f 529e 853f 18ba 7e3f
0.8251814 0.7457584 0.54939616 0.53625107 0.7585635 0.7305394 1.043894 0.99502707

l2.weight f4 [8, 8]
00000000: 60e1 a0bc 73f7 7cbe cc9c 58be 0eeb 2cbe
00000010: 49cc 9a3c bc39 6a3b 8bd6 70bd 2d7f a23d
00000020: 6e96 93bf e9bc f5be a98b ae3e f3fe 523e
00000030: 650b 5b3f 7e62 14be f6e9 d2be 603c 873f
00000040: bd2b bf3f d4f2 55be c290 913f 4467 053e
00000050: 62b1 bc3f ee58 3f3f 3012 613e 827a c6bf
00000060: 5530 1abe e0f3 5abf d8de c53f a146 7fbf
00000070: 3740 d13e 007f e83f 82ad ebbe 5326 0a3f
00000080: f91d f43d 88e2 fe3f f355 a1bf 7625 97bf
00000090: 89c4 383f 1bc5 e6be 4323 de3f 4f09 e13f
000000a0: befd a8bf 9b98 ebbe ffce 9cbd 2bfb 0f3f
000000b0: 01b0 993f 535f d73b 5ff3 c9be e8ec 5b3f
000000c0: f060 193d cc11 ff3d a020 67bd d812 e8bd
000000d0: 1c54 97be 242d f9bd 9462 43be d037 8fbc
000000e0: c7c8 3d3f 1abd a5bf c374 3b3f b63d a83f
000000f0: 1372 bbbf 8b8e 79be 6578 c93f 041c 1d3f
-0.019638717 -0.2470377 -0.21153563 -0.16886541 0.018896239 0.0035739979 -0.058798354 0.07934413
-1.1530282 -0.4799569 0.34090927 0.20605068 0.8556426 -0.14490697 -0.41194123 1.05653
1.4935223 -0.20893413 1.1372302 0.13027674 1.4741633 0.7474507 0.21979594 -1.5506136
-0.150575 -0.85528374 1.5458632 -0.99717146 0.40869305 1.8163757 -0.46030813 0.5396473
0.11919779 1.9912882 -1.2604355 -1.1808307 0.7217489 -0.45072255 1.7354511 1.7580966
-1.3202436 -0.46014866 -0.07656669 0.56242627 1.2006837 0.006572643 -0.3944349 0.85908365
0.037445962 0.12454566 -0.056427598 -0.11331719 -0.29556358 -0.12166813 -0.19080573 -0.017482668
0.74134487 -1.2948334 0.7322504 1.3143833 -1.4644188 -0.24370782 1.5739866 0.61370873

l2.bias f4 [8]
00000000: 45cc 93be f81f 61be d19d 1d3e 61b6 253f
00000010: 3a8b 853f 434f 14be 0178 94be f775 0b3f
-0.28866783 -0.21984851 0.15392233 0.64731413 1.0433114 -0.14483361 -0.28997806 0.54476875

l3.weight f4 [10, 8]
00000000: 901c a7be db11 09bf 2ea5 8bbf 9cd6 583f
00000010: bbf9 94be 2888 8abf 14f2 a3bd e9e4 a43e
00000020: 4abf 6abe c4c9 d3bf 8f93 1c3e 4608 343f
00000030: 2043 e73d 272b f8bf 8e04 3fbe b082 08c0
00000040: f344 24bd 47a2 b4bf af03 01c0 11ea babf
00000050: 4767 0d3d fe9b dcbf 32a7 243e d8b1 8a3f
00000060: c792 ad3d c07b 4dbf fa7d 983e 2b7e abbf
00000070: 7804 86bf 4c1d 56bf 8b72 b33e 1f45 613f
00000080: 303f dcbe 207b 9abf 2150 dabf daa4 5cbf
00000090: 64dd 843f ca80 9abf e46d 52be 85ff 58bf
000000a0: 7ba9 c73d 26c2 d6bf 9580 7c3f 5c75 933d
000000b0: 4723 adbf c2b5 e4bf 18ed f6bd 90fd 8cbe
000000c0: 3c60 46be dd72 95bd dc6e a53e bfe3 4b3f
000000d0: c689 bdbf e1b7 bf3e d2cd 95be d8cc e2bf
000000e0: 5154 7fbe a3fe 563f 8568 8ebf 3cb0 cf3e
000000f0: fafd ccbe ef71 403f acde 8bbd 568d b4bf
00000100: 7726 2ebe 356f c73e 5823 69bf e4a1 6bbf
00000110: 1438 06be 7d32 b03e 00d4 4cbb d376 c83d
00000120: 7c12 833e 49cc fc3e b628 6a3f 51d6 e2bf
00000130: bf54 ff3e 247d 403f 4847 87be 4483 e1bf
-0.3263898 -0.5354287 -1.0909784 0.8470247 -0.2909678 -1.0822802 -0.08005157 0.32205895
-0.22924533 -1.6545949 0.15290664 0.70325124 0.112921 -1.9388169 -0.18654081 -2.1329765
-0.040104818 -1.4112023 -2.0158498 -1.4602681 0.03452232 -1.7235105 0.16079405 1.0835524
0.08475261 -0.8026695 0.29783612 -1.3397878 -1.0470114 -0.83638453 0.35048327 0.87996095
-0.43016958 -1.2068825 -1.7055703 -0.86189044 1.0380063 -1.2070553 -0.20549732 -0.8476489
0.09749123 -1.6777999 0.986337 0.07200119 -1.3526391 -1.7867968 -0.12056941 -0.27537203
-0.19372648 -0.07297299 0.32311141 0.7964439 -1.480767 0.37444976 -0.2925859 -1.7718763
-0.24934508 0.83982295 -1.1125647 0.40564144 -0.4003752 0.7517385 -0.06829581 -1.4105632
-0.1700686 0.38952032 -0.91069555 -0.920439 -0.1310733 0.3441352 -0.0031254292 0.09788289
0.2560004 0.49374607 0.9146837 -1.7721654 0.49869344 0.7519095 -0.2642157 -1.7618184

l3.bias f4 [10]
00000000: 3bf1 c1be 4c6b 5d3d d399 ca3e 3128 733a
00000010: c43c 253e 5020 08be 3929 823d 47cd 0dbd
00000020: 7367 35bf 3cfa b4bd
-0.37879357 0.054057404 0.39570484 0.00092757033 0.16136461 -0.13293576 0.06355519 -0.034619596
-0.70860976 -0.08836791
