data.pth (torch, 6231 bytes, 6 tensors)

l1.weight f4 [8, 76]
-0.69963104 0.9130289 0.6560361 0.81647784 0.75956464 -0.07917151 -0.70036197 0.49566248
0.5975662 0.5876044 0.66026485 0.17412002 -0.031642567 0.71982926 0.42036757 0.08153884
0.30825597 0.37894005 0.6820686 0.42484143 -0.06496454 0.24640979 0.12720281 0.4648453
-0.7166928 -0.5947825 -0.54640794 0.3644908 0.021254836 0.2626328 0.14979315 0.20727156
-0.4048691 0.34807444 0.44359547 -0.16385831 0.44983923 0.6153981 0.8222603 0.5604757
0.36643535 0.5328879 0.25239044 0.08425576 -0.2778133 0.22159232 0.28462467 0.826418
0.1444868 0.41140294 0.7004154 -0.62526876 0.13996431 -0.12435156 0.26914427 0.43545836
0.5524494 -0.5289646 0.4308745 0.6636151 0.44532272 0.82269275 0.43094587 0.04166137
0.5117255 0.2699582 0.2974098 0.12415861 0.5339014 -0.6917309 0.51444834 -0.62624836
0.5865377 -0.69644517 0.44254065 0.2990671 -0.5620431 -0.46710157 -0.15674524 0.79398155
-0.1667217 0.307083 -0.5099602 -0.029915348 0.37026644 -0.28465933 -0.28053612 0.19683853
0.42629817 -0.5056183 -0.027667489 0.350359 -0.34811482 0.14313813 -0.1890679 0.13077813
0.3718 0.35440564 0.27115792 0.15646088 0.8745012 0.46506146 0.72878367 0.86684895
0.22969492 -0.6520032 -0.2873413 0.015418078 0.42368668 0.258147 0.024936933 0.28224543
0.48907298 0.21736698 -0.42993397 -0.0985258 0.113122836 -0.056197178 -0.53561187 0.4095869
0.27336094 0.14231806 -0.069122314 -0.48822024 -0.16236813 -0.4003399 -0.012840572 0.98217106
0.3993124 0.17004284 0.22291271 0.54704744 0.38347325 0.5405688 0.35621503 -0.42878398
0.12565522 -0.43678278 0.26137272 0.70030296 0.6308464 -0.00560664 0.20323405 0.19303462
0.23149271 -0.19249319 -0.23139498 0.45153973 -0.16487843 -0.35423782 -0.21637756 0.24387589
0.4249242 0.30419186 -0.245264 -0.6220879 0.29618838 -0.11904053 0.51060224 0.082238846
-0.49707934 0.20277384 -0.42469645 0.18417594 -0.13368285 0.20248684 -0.2325066 -0.10385918
-0.39799652 0.28858805 0.26464605 0.5622075 -0.03953406 0.020854024 -0.15632404 -0.43217716
0.87715 0.61270624 0.739722 0.9941484 0.58721566 -0.52052885 -0.3261677 0.17470789
-0.3466776 0.47168803 -0.31313014 -0.133737 -0.16204128 -0.34131873 0.34241495 -0.34044757
-0.2837835 -0.36452335 -0.7279728 0.5256287 -0.071472436 0.048507173 -0.20829608 0.19189745
0.048571333 -0.22818609 -0.36361998 -0.7281398 -0.30255148 0.23869224 0.3491963 -0.3567293
-0.29974806 0.73246783 -0.44767922 -0.37690967 0.2928927 -0.5605386 -0.5009644 0.09853441
-0.32876092 -0.34048572 0.052256055 0.2573738 -0.20293233 0.5936061 -0.37036768 -0.34926543
0.3394395 0.66766775 -0.034237273 0.39345625 0.9585266 -0.6499489 -0.41028517 0.31442705
-0.37310836 0.21897347 0.86025333 -0.011903343 0.5813446 -0.32115456 -0.49568424 0.26540977
0.24411726 -0.4820072 -0.018721977 0.29856235 0.31127536 -0.09023942 -0.1858894 -0.2232927
0.33298934 0.36058053 0.21403927 0.3691965 0.6281291 0.24170272 0.4914487 -0.6521913
00000000: 051b 33bf 43bc 693f fbf1 273f b104 513f
00000010: d472 423f ac24 a2bd ec4a 33bf 79c7 fd3e
00000020: 19fa 183f 3e6d 163f 1e07 293f 854c 323e
00000030: a39b 01bd bb46 383f 6b3a d73e d6fd a63d
00000040: bad3 9d3e 6e04 c23e 0c9c 2e3f d184 d93e
00000050: 210c 85bd d952 7c3e 7441 023e 3400 ee3e
00000060: 2e79 37bf aa43 18bf 64e1 0bbf 8a9e ba3e
00000070: 9f1e ae3c ce77 863e 6063 193e ff3e 543e
00000080: 014b cfbe d036 b23e f21e e33e 79ca 27be
00000090: 5451 e63e bb8a 1d3f a77f 523f 567b 0f3f
000000a0: 6a9d bb3e 576b 083f 5239 813e 498e ac3d
000000b0: 8b3d 8ebe 19e9 623e 53ba 913e 2190 533f
000000c0: 59f4 133e 68a3 d23e 6c4e 333f 9d11 20bf
000000d0: ce52 0f3e 08ac febd 47cd 893e 66f4 de3e
000000e0: 536d 0d3f 396a 07bf 959b dc3e aee2 293f
000000f0: 5701 e43e fe9b 523f f0a4 dc3e 1da5 2a3d
00000100: 7100 033f f637 8a3e 1946 983e df46 fe3d
00000110: c3ad 083f 4715 31bf e3b2 033f d051 20bf
00000120: 5627 163f 3b4a 32bf b094 e23e 531f 993e
00000130: 0ee2 0fbf f027 efbe d381 20be 6042 4b3f
00000140: 18b9 2abe fc39 9d3e c08c 02bf 0811 f5bc
00000150: 9093 bd3e debe 91be 6ea2 8fbe 0a90 493e
00000160: c143 da3e 3370 01bf eea6 e2bc 4162 b33e
00000170: 1b3c b2be cd92 123e 049b 41be b4ea 053e
00000180: 925c be3e a874 b53e 36d5 8a3e 4837 203e
00000190: 50df 5f3f 891c ee3e 9191 3a3f d0e9 5d3f
000001a0: 2535 6b3e afe9 26bf 661e 93be 1b9c 7c3c
000001b0: 76ed d83e d82b 843e 8a48 cc3c 7982 903e
000001c0: c667 fa3e 7395 5e3e 4e20 dcbe e5c7 c9bd
000001d0: f2ac e73d 032f 66bd dc1d 09bf 60b5 d13e
000001e0: f7f5 8b3e d3bb 113e 0090 8dbd 01f8 f9be
000001f0: d543 26be 5af9 ccbe 4361 52bc 906f 7b3f
00000200: ad72 cc3e b61f 2e3e 3b43 643e 4d0b 0c3f
00000210: 9b56 c43e b862 0a3f d161 b63e 9389 dbbe
00000220: c3ab 003e fea1 dfbe a5d2 853e 0e47 333f
00000230: 267f 213f e8b7 b7bb 961c 503e deaa 453e
00000240: 6d0c 6d3e ef1c 45be cef2 6cbe 3730 e73e
00000250: e4d5 28be a95e b5be 1492 5dbe 9aba 793e
00000260: aa8f d93e 09bf 9b3e 7c26 7bbe 2741 1fbf
00000270: 01a6 973e 85cb f3bd d4b6 023f d76c a83d
00000280: 2f81 febe f2a3 4f3e d071 d9be 9e98 3c3e
00000290: 28e4 08be b658 4f3e 3616 6ebe 1fb4 d4bd
000002a0: 33c6 cbbe d0c1 933e b07f 873e d5ec 0f3f
000002b0: 77ee 21bd 0fd6 aa3c 6913 20be 5346 ddbe
000002c0: e78c 603f 51da 1c3f 6c5e 3d3f 8280 7e3f
000002d0: c453 163f 6141 05bf 74ff a6be a0e6 323e
000002e0: ba7f b1be 1881 f13e 9852 a0be 5af2 08be
000002f0: 26ee 25be 54c1 aebe 0351 af3e 254f aebe
00000300: 124c 91be cea2 babe 6d5c 3abf 9a8f 063f
00000310: 2460 92bd 75af 463d 914b 55be c480 443e
00000320: bcf2 463d 9da9 69be 662c babe 5f67 3abf
00000330: 07e8 9abe bd6b 743e dcc9 b23e 39a5 b6be
00000340: 9478 99be 0383 3b3f 3636 e5be 4efa c0be
00000350: 08f6 953e 757f 0fbf 343f 00bf 69cc c93d
00000360: 5a53 a8be 2554 aebe 720a 563d 80c6 833e
00000370: 7ecd 4fbe 92f6 173f d5a0 bdbe ebd2 b2be
00000380: 04cb ad3e 46ec 2a3f 623c 0cbd 1973 c93e
00000390: 0062 753f 0d63 26bf e610 d2be 95fc a03e
000003a0: 0f08 bfbe 953a 603e 9039 5c3f 3d06 43bc
000003b0: 00d3 143f 5f6e a4be 53ca fdbe cae3 873e
000003c0: e0f9 793e a6c9 f6be d55e 99bc 2add 983e
000003d0: 7c5f 9f3e 72cf b8bd ca59 3ebe d7a6 64be
000003e0: 947d aa3e 039e b83e 1c2d 5b3e 5307 bd3e
000003f0: 12cd 203f eb80 773e 2a9f fb3e 02f6 26bf

l1.bias f4 [8]
0.8324443 0.6743926 0.7280325 0.652401 0.60344523 0.71817267 0.7957814 0.5347651
00000000: 121b 553f fea4 2c3f 5760 3a3f c003 273f
00000010: 637b 1a3f 2ada 373f 54b8 4b3f 5ee6 083f

l2.weight f4 [8, 8]
-0.51115316 1.1166782 1.548453 0.591711 0.5372747 1.2447786 1.1791506 -1.025783
1.4188801 -0.6349906 0.540365 -0.37196732 -0.8319883 0.14208326 0.9666879 -0.16619271
-0.5818713 0.35594273 -0.2009973 1.8339636 1.4489247 0.40736344 1.4603299 -0.5285813
0.009509236 0.94398665 0.39785558 0.14433025 0.02634149 -0.38671085 0.36429113 1.0068878
0.61994326 0.93725437 -1.2415792 0.16887106 -0.10881 -0.8399087 1.3383065 0.8743916
1.8153849 -0.09993347 -0.8950337 -0.048485275 -0.38300827 0.014670805 0.6890928 1.2693272
-0.24818403 1.2596409 0.31640878 0.93658054 0.7208757 0.41554356 -0.78940743 1.4531294
1.0047665 0.9965814 0.83546376 -0.26970488 0.08337963 1.5739831 -1.4358803 1.30334
00000000: efda 02bf 50ef 8e3f b533 c63f 5f7a 173f
00000010: d68a 093f e854 9f3f 68ee 963f db4c 83bf
00000020: dd9d b53f be8e 22bf 5c55 0a3f 8072 bebe
00000030: 2ffd 54bf 467e 113e dc78 773f 6c2e 2abe
00000040: 84f5 14bf 203e b63e 3cd2 4dbe 52bf ea3f
00000050: 5d76 b93f f191 d03e 17ec ba3f 1b51 07bf
00000060: a0cc 1b3c 1ca9 713f bab3 cb3e 4fcb 133e
00000070: 1cca d73c f7fe c5be 5e84 ba3e b3e1 803f
00000080: 9ab4 1e3f e7ef 6f3f 11ec 9ebf 89ec 2c3e
00000090: c7d7 debd 4204 57bf a14d ab3f 21d8 5f3f
000000a0: 885e e83f eba9 ccbd ee20 65bf 7f98 46bd
000000b0: a919 c4be d15d 703c 6368 303f 5079 a23f
000000c0: f423 7ebe ea3b a13f 5500 a23e bec3 6f3f
000000d0: 4f8b 383f 20c2 d43e 9b16 4abf 2500 ba3f
000000e0: 309c 803f f51f 7f3f f4e0 553f c216 8abe
000000f0: f1c2 aa3d 4778 c93f edca b7bf d8d3 a63f

l2.bias f4 [8]
0.75585055 1.1570922 0.6109715 -0.5583099 -0.07993908 0.5445285 -0.30563828 0.0036716126
00000000: 6c7f 413f 991b 943f a168 1c3f 66ed 0ebf
00000010: 1ab7 a3bd 3866 0b3f 9f7c 9cbe 709f 703b

l3.weight f4 [10, 8]
0.2231004 0.66439086 0.46910393 -1.7002773 0.26510528 0.28644094 -1.8195319 -2.09286
-0.30322933 -0.2881688 -0.44048467 0.38841015 0.7809002 0.20537947 -0.21958284 -0.4259758
0.7913396 0.016600376 0.90054286 -0.08801405 -1.8757607 -1.6717936 -0.11277599 -1.8364162
0.33165938 -0.25617135 -1.6246132 0.7187333 -1.5559425 -0.55236745 0.524502 0.49200082
0.5468022 -1.5121052 0.22329158 -0.20497173 -1.0763621 -1.924023 0.29169324 0.5760752
-1.5717918 0.33543146 -1.8908604 -0.3002265 -0.0703583 0.58139473 0.049970724 0.56782967
0.19617301 -1.2309155 0.5282615 0.4662316 0.7053596 -1.083963 0.04170652 -1.3889912
-0.57758516 -1.5318295 0.09137648 0.23439142 -0.49950466 -0.12120069 0.50045156 0.4789318
-1.2360077 0.4765946 -1.0922987 0.21358383 0.6832521 0.67712426 -1.7223517 -0.78966904
0.439905 0.8004295 -1.1330396 -0.90083206 -0.8648578 0.4443032 -1.3764231 0.091463104
00000000: 6e74 643e 8515 2a3f 642e f03e b0a2 d9bf
00000010: e1bb 873e 63a8 923e 6ce6 e8bf 6bf1 05c0
00000020: e040 9bbe dc8a 93be 3587 e1be b2dd c63e
00000030: 13e9 473f ff4e 523e 53da 60be 8019 dabe
00000040: 3b95 4a3f 83fd 873c fa89 663f b640 b4bd
00000050: ed18 f0bf 55fd d5bf 19f7 e6bd b00f ebbf
00000060: 42cf a93e e428 83be 53f3 cfbf e8fe 373f
00000070: 2029 c7bf f467 0dbf c345 063f 88e7 fb3e
00000080: 3bfb 0b3f aa8c c1bf 8ca6 643e 1ce4 51be
00000090: 3cc6 89bf 6346 f6bf d158 953e aa79 133f
000000a0: 7930 c9bf acbd ab3e b707 f2bf 4ab7 99be
000000b0: 0318 90bd 49d6 143f 1aae 4c3d 495d 113f
000000c0: 94e1 483e a48e 9dbf 253c 073f e9b5 ee3e
000000d0: 7292 343f 4dbf 8abf 75d4 2a3d 77ca b1bf
000000e0: 9fdc 13bf fd12 c4bf 9823 bb3d 4e04 703e
000000f0: 13bf ffbe 1138 f8bd 981d 003f 8d36 f53e
00000100: 8035 9ebf 3504 f43e 72d0 8bbf b8b5 5a3e
00000110: 9ce9 2e3f 0458 2d3f 0576 dcbf c027 4abf
00000120: 3a3b e13e f3e8 4c3f 7107 91bf ee9c 66bf
00000130: 5267 5dbf b67b e33e a22e b0bf 0251 bb3d

l3.bias f4 [10]
0.6281352 -0.24854216 0.23937011 -0.26095143 0.095073 0.111472555 -0.42821556 -0.25182807
-0.4586473 0.40273505
00000000: 78cd 203f d681 7ebe 701d 753e 6d9b 85be
00000010: a2b5 c23d b94b e43d 123f dbbe 9cef 80be
00000020: d2d3 eabe 4a33 ce3e
