data.pth (torch, 6231 bytes, 6 tensors)

l1.weight f4 [8, 76]
0	0xbf1ac8e9	-0.60462815
1	0x3f62cc8e	0.88593376
2	0xbd19bffb	-0.037536602
3	0xbe535c64	-0.20640713
4	0x3eadd90e	0.33954662
5	0x3e71e1cf	0.23621295
6	0xbf04315f	-0.51637834
7	0x3f03bcfd	0.5146025
8	0x3ed16248	0.40895295
9	0x3f129aab	0.57267255
10	0x3dd847ba	0.10560556
11	0x3e08fdd6	0.1337808
12	0x3e1bbc18	0.15208471
13	0x3f2a0a70	0.66422176
14	0xbe03edfb	-0.12883751
15	0x3e5fc4e5	0.21852453
16	0xbe1d7847	-0.15377913
17	0x3ee9ad50	0.4564004
18	0x3ebbcf74	0.36681712
19	0x3e8fda14	0.28096068
20	0x3e65c306	0.22437677
21	0x3e8cedab	0.27525076
22	0x3e3a175b	0.18172972
23	0x3c90f08f	0.017692832
24	0xbf05f886	-0.5233234
25	0xbe831a51	-0.25606015
26	0xbea25c5d	-0.31711093
27	0x3f43197e	0.76210773
28	0x3ef03789	0.4691737
29	0xbf181597	-0.59407943
30	0xbe187bbc	-0.14890951
31	0x3b4d098e	0.0031286213
32	0x3e08648c	0.13319606
33	0x3efb0537	0.49027416
34	0xbb861b6b	-0.004092624
35	0x3e4600da	0.19336262
36	0x3eb28a0b	0.34870943
37	0x3edbdd3d	0.4294223
38	0x3f1e680b	0.61877507
39	0xbdee640b	-0.116401754
40	0x3e17b0b3	0.14813499
41	0x3e7af9b0	0.2450931
42	0xbee511c5	-0.4474012
43	0x3f2598b8	0.64686155
44	0x3e0bef61	0.13665535
45	0x3a3e4c7f	0.00072593236
46	0x3e98db6b	0.29854903
47	0x3f0313fd	0.51202375
48	0xbe93702f	-0.28796527
49	0xbe109c0a	-0.14122024
50	0x3e09d766	0.13461074
51	0x3f5a90ef	0.853774
52	0x3e8847a4	0.26617157
53	0x3ddb5b61	0.107107885
54	0x3e853428	0.26016355
55	0x3c5efd51	0.0136102
56	0xbdda3ab0	-0.10655725
57	0xbeb64638	-0.35600448
58	0xbe3768e9	-0.17911114
59	0xbe378da2	-0.17925122
60	0x3f1a1b5d	0.60198003
61	0xbd3fe191	-0.046845976
62	0xbedc222f	-0.4299483
63	0xbd83d5f0	-0.0643729
64	0xbce9c416	-0.028535884
65	0x3d12a20a	0.035799064
66	0x3e811225	0.25209156
67	0x3ebb32a9	0.36562088
68	0x3e8acda6	0.27110022
69	0xbe7cb56b	-0.2467858
70	0xbd4ecc1d	-0.050487626
71	0x3e7c878b	0.2466108
72	0x3f09d951	0.53847224
73	0xbe80bfd4	-0.25146353
74	0xbde1fafd	-0.110342
75	0x3ec97849	0.39349583
76	0x3f2f66cc	0.6851623
77	0xbe8a82b9	-0.27052858
78	0xbe9ff4e5	-0.31241527
79	0xbf3f1b36	-0.74650896
80	0xbe8a7018	-0.27038646
81	0x3e1c5082	0.15265086
82	0x3f26d109	0.6516271
83	0x3e375517	0.17903553
84	0x3f17c30b	0.59281987
85	0xbeb03f87	-0.34423468
86	0x3ec001a0	0.3750124
87	0x3e9f38d1	0.31098035
88	0x3dffe43a	0.12494703
89	0xbf038af6	-0.5138391
90	0xbdf4386e	-0.119248256
91	0x3e2e00e4	0.16992527
92	0xbe86c1da	-0.26319772
93	0x3e9bf062	0.30456835
94	0xbe816051	-0.25268796
95	0xbec9ac2c	-0.3938917
96	0x3ead65bf	0.3386669
97	0x3ed8aa6b	0.4231752
98	0x3f3fbd0d	0.74897844
99	0x3ee97b56	0.4560191
100	0x3f86f2c8	1.0542841
101	0x3f5afdc5	0.8554347
102	0x3f7ea1c8	0.9946561
103	0xbdc2ce03	-0.0951195
104	0xbe04aba6	-0.12956104
105	0xbf11cdd5	-0.569547
106	0xbeccb261	-0.39979842
107	0x3ee20d01	0.44150546
108	0x3e02123d	0.1270227
109	0x3cd8b557	0.026453657
110	0x3dda8f8d	0.106719114
111	0x3f068554	0.5254719
112	0x3f848c46	1.0355308
113	0x3f17504d	0.59106904
114	0xbf1ab382	-0.6043016
115	0x3ebf110d	0.37317696
116	0x3e27fb3e	0.16404435
117	0x3efbd2e3	0.4918433
118	0xbf113e1b	-0.5673539
119	0x3e891c00	0.26779175
120	0x3f3468cf	0.70472425
121	0x3e9df4bf	0.3085079
122	0xbe398123	-0.18115668
123	0xbe65e277	-0.2244967
124	0x3e81a555	0.2532145
125	0xbed3c8d8	-0.4136417
126	0x3ed18ebd	0.40929213
127	0x3f239556	0.63899744
128	0x3ede39a1	0.43403342
129	0x3f80626b	1.0030035
130	0xbdd55cc8	-0.10418087
131	0xbf2f1cd7	-0.6840338
132	0xbefb1b09	-0.49044064
133	0x3f5c26b7	0.85996574
134	0xbf20bcd2	-0.62788117
135	0xbebf28fc	-0.37335956
136	0x3e88b370	0.266994
137	0x3f0c91ea	0.5491015
138	0x3f010abb	0.50407
139	0x3ef7b5c5	0.48380867
140	0xbf13dc31	-0.5775786
141	0x3db48dcd	0.08816109
142	0x3efe0a24	0.49617112
143	0x3d876bfb	0.066123925
144	0x3f0f75bf	0.5603904
145	0x3f3c220b	0.73489445
146	0x3ec46319	0.38356856
147	0x3e2f13cd	0.17097397
148	0xbea293c9	-0.31753376
149	0x3edf5606	0.43620318
150	0xbe993f0f	-0.29930922
151	0x3e1d93a4	0.15388352
152	0x3efd04c8	0.4941771
153	0x3d0abd80	0.033872128
154	0xbed617c1	-0.41814998
155	0x3f5819d4	0.8441441
156	0x3d7c5ffa	0.061614968
157	0xbe32b4ec	-0.17451829
158	0x3eea16a8	0.4572041
159	0xbdf8f860	-0.12156749
160	0x3edd9418	0.4327705
161	0x3eaf7ad5	0.342734
162	0xbec95cd3	-0.39328632
163	0x3ee0c991	0.43903783
164	0xbdc3d477	-0.09562009
165	0x3de9581e	0.1139376
166	0xbe14227a	-0.14466277
167	0xbcca70c3	-0.024711972
168	0x3ee288aa	0.4424489
169	0xbe2a0743	-0.16604333
170	0x3e878f56	0.26476544
171	0xbe5636c8	-0.20919335
172	0xbe4c9b9d	-0.19981237
173	0x3ea0b46f	0.3138766
174	0xbe819214	-0.2530676
175	0xbd95fed2	-0.07323994
176	0x3ecebbd5	0.4037768
177	0x3eb8928e	0.36049312
178	0x3f11053c	0.5664861
179	0xbeb53529	-0.3539212
180	0x3d8908f8	0.06691164
181	0x3edc6919	0.43048933
182	0x3eb634cd	0.3558716
183	0x3e982aaf	0.29720065
184	0xbeb1b8a3	-0.3471118
185	0x3dbfc138	0.093630254
186	0xbdb056f9	-0.08610339
187	0x3e914d1e	0.28379148
188	0x3f437de5	0.76363975
189	0x3ef1c274	0.47218668
190	0x3e7330c4	0.23749071
191	0xbe8a9a5d	-0.27070895
192	0x3d784d8f	0.06062084
193	0xbec43555	-0.3832194
194	0x3eb41387	0.35171148
195	0x3ea64d78	0.3248098
196	0x3e72708c	0.23675746
197	0x3ef8d907	0.4860308
198	0x3ef40060	0.47656536
199	0x3b849d46	0.004047069
200	0x3ebe683f	0.37188908
201	0xbe741f97	-0.23840176
202	0xbea53818	-0.3226936
203	0xbedb92a3	-0.42885312
204	0x3e8eabbd	0.278654
205	0x3eba1d2b	0.36350378
206	0x3d847d0a	0.06469162
207	0x3f107100	0.56422424
208	0x3f1d091d	0.6134203
209	0x3f48c4cb	0.7842528
210	0x3f17f3b6	0.5935625
211	0xbf10eb54	-0.5660908
212	0x3ef8d905	0.48603073
213	0xbf093fec	-0.5361316
214	0xbf1410ca	-0.5783812
215	0x3f14a313	0.5806133
216	0x3ed5193c	0.41620815
217	0xbd8f3977	-0.069933824
218	0x3ee4aa1f	0.44661042
219	0x3e26af36	0.16277775
220	0xbeb63069	-0.3558381
221	0x3ca7ac12	0.020467792
222	0xbe7ea004	-0.24865729
223	0xbeca8458	-0.39554095
224	0x3e71c404	0.2360993
225	0x3eae471f	0.34038636
226	0xbebd8249	-0.37013462
227	0xbd349062	-0.044083007
228	0x3e1c6079	0.15271176
229	0x3ecf5eef	0.40502116
230	0x3cce6003	0.025192266
231	0x3f1d9549	0.61555916
232	0x3f0cfb8c	0.5507133
233	0xbdc3b23f	-0.09555482
234	0x3b7a90d0	0.0038233288
235	0x3da09a7e	0.07841967
236	0xbef6b757	-0.48186752
237	0x3ea7dc43	0.32785234
238	0xbec16c12	-0.37777764
239	0x3c498977	0.012300841
240	0xbd915a6c	-0.07097325
241	0x3ec62b40	0.38704872
242	0xbd6f41d5	-0.05841239
243	0xbd403dc7	-0.046933915
244	0xbdefbd6a	-0.1170605
245	0x3d99b1bc	0.07504603
246	0x3f10513b	0.5637395
247	0x3e05f273	0.13080768
248	0xbd7bfb30	-0.061518848
249	0x3db103e6	0.08643322
250	0xbeaa066a	-0.3320802
251	0xbeb8ebcb	-0.36117396
252	0xbf122602	-0.57089245
253	0xbf004b99	-0.5011535
254	0xbf0b3c54	-0.5438893
255	0x3f413100	0.75465393

l1.bias f4 [8]
0	0x3f3bd036	0.7336458
1	0x3f3f21a4	0.74660707
2	0x3f4a0ea3	0.78928584
3	0x3f0b39b3	0.5438492
4	0x3f1f25f7	0.62167305
5	0x3f051d5b	0.5199792
6	0x3f4b6c57	0.7946219
7	0x3f0ba546	0.5454906

l2.weight f4 [8, 8]
0	0x3fc6059d	1.5470463
1	0xbf7df4ec	-0.99201846
2	0x3e8d3115	0.2757651
3	0x3fba85c7	1.4572076
4	0x3fc7ff22	1.5624735
5	0xbe71a9ba	-0.23599902
6	0x3e5b3b47	0.21409331
7	0x3f097b84	0.53704095
8	0x3ee3216f	0.44361445
9	0x3fa10338	1.2579107
10	0x3fa83a61	1.3142816
11	0x3f98798a	1.1912091
12	0xbedd06ec	-0.43169343
13	0xbeb519ad	-0.35371152
14	0xbeb21394	-0.34780562
15	0xbfbdfff3	-1.4843735
16	0x3f8082b2	1.0039885
17	0xbb4eb291	-0.003153954
18	0xbf0ca7e7	-0.549437
19	0x3eb4e7ad	0.35333005
20	0xbf0bae5c	-0.54562926
21	0xbddcce56	-0.10781543
22	0x3fda4c9d	1.705463
23	0x3ee8808a	0.45410568
24	0x3e30279a	0.17202607
25	0x3f4d1b88	0.80120134
26	0x3e80c47e	0.25149912
27	0xbfbe4522	-1.4864848
28	0xbe09fd24	-0.13475472
29	0xbea51150	-0.3223977
30	0x3fb8aea1	1.4428293
31	0x3fa1691b	1.2610201
32	0x3f8ca01e	1.0986364
33	0x3f27334f	0.65312666
34	0x3f067163	0.52516764
35	0x3ed1aca0	0.40952015
36	0x3f961e51	1.1728002
37	0xbecb6562	-0.39725786
38	0xbfd37c20	-1.6522255
39	0x3f938426	1.1524704
40	0x3ecf1c3a	0.40451223
41	0x3fab2dd0	1.3373356
42	0xbe8c0e38	-0.27354598
43	0xbfa4fc35	-1.2889467
44	0x3f266bc9	0.6500822
45	0xbf958906	-1.1682441
46	0x3fa4b532	1.2867796
47	0x3f5b98c6	0.8577999
48	0x3dacb198	0.08432311
49	0x3e588251	0.21143462
50	0x3fe9e8b3	1.8274139
51	0x3f34c651	0.70615107
52	0xbea0767d	-0.313404
53	0xbf810e6d	-1.0082527
54	0x3f172682	0.59043133
55	0xbf4ac1d8	-0.7920203
56	0x3f617b8d	0.8807915
57	0x3fbbc045	1.4668051
58	0xbe0cbb7d	-0.13743396
59	0x3f54e650	0.8316393
60	0xbf5fd3c2	-0.8743249
61	0x3fdd1383	1.727158
62	0x3d517cb9	0.051144335
63	0xbe9121af	-0.2834601

l2.bias f4 [8]
0	0x3ea3bba9	0.3197911
1	0x3ed3eaa1	0.41389945
2	0x3e47d91b	0.19516413
3	0x3e9e0783	0.30865106
4	0xbf0705a1	-0.52742964
5	0x3eb50050	0.353518
6	0x3f61adea	0.88155997
7	0x3eb22771	0.34795716

l3.weight f4 [10, 8]
0	0xbc2674ae	-0.010159655
1	0xbf72134c	-0.94560695
2	0x3eebc6a5	0.4604999
3	0x3f3385a5	0.701258
4	0xbfb4b718	-1.4118376
5	0x3eaf715c	0.34266174
6	0x3f24776d	0.6424473
7	0xc00e0e11	-2.2196085
8	0x3ef3faee	0.47652382
9	0x3eeae049	0.4587424
10	0xbf27cc99	-0.65546566
11	0xc0003c8e	-2.003696
12	0x3e1594b9	0.14607514
13	0xbf96c73f	-1.1779555
14	0x3f53ce47	0.8273663
15	0xbfbfeda8	-1.4994402
16	0xbf9f3a2a	-1.2439625
17	0x3f540579	0.8282085
18	0xbf6ac07f	-0.91699976
19	0xbf782203	-0.969269
20	0xbf7b0365	-0.98052055
21	0xbf7760f8	-0.9663234
22	0x3f102efc	0.5632169
23	0x3f8d99a6	1.1062515
24	0x3e95df47	0.2927191
25	0xbd762090	-0.060089648
26	0x3e4fc63c	0.20290464
27	0xbf90f401	-1.1324464
28	0x3f05074d	0.51964265
29	0xbf88433e	-1.0645521
30	0xbfb273f6	-1.3941638
31	0x3ef03502	0.46915442
32	0xbfe65a06	-1.7996223
33	0x3f2126d4	0.6294987
34	0x3ecc2878	0.39874625
35	0x3e805dc3	0.25071535
36	0xbfa26f54	-1.2690225
37	0x3eec63b4	0.46169817
38	0x3ee90622	0.4551249
39	0xbea028f6	-0.3128125
40	0xbf9b0805	-1.2111822
41	0xbf356f26	-0.70872724
42	0x3ebaecbc	0.3650874
43	0x3f28b3eb	0.65899533
44	0xbf61de26	-0.88229597
45	0x3e972d36	0.2952668
46	0xbfcc29fa	-1.595031
47	0x3f5cd742	0.8626596
48	0xbe14d722	-0.14535192
49	0xbf349038	-0.7053256
50	0x3ea554e4	0.3229133
51	0x3e6d065c	0.23146957
52	0x3ebe60e3	0.37183294
53	0x3f0e9741	0.55699545
54	0xbf9620b8	-1.1728735
55	0xbf389e17	-0.72116226
56	0xbea2d48b	-0.31802782
57	0x3ec3f0a7	0.3826954
58	0xbf753b6e	-0.9579381
59	0xbf200368	-0.625052
60	0x3f09e255	0.5386098
61	0x3df47236	0.119358465
62	0xbb6462f4	-0.003484902
63	0xbe918658	-0.2842281
64	0x3f4c2f9d	0.7976015
65	0xbf59e728	-0.8511834
66	0xbf1631bc	-0.5866964
67	0xbff53f83	-1.9160007
68	0x3ea6888f	0.3252606
69	0x3ea7554b	0.3268226
70	0xbf53142a	-0.8245264
71	0xbfc9b31c	-1.5757785
72	0x3ea4869c	0.3213395
73	0x3e05138a	0.12995735
74	0x3f64c6fe	0.8936614
75	0xbf5d8069	-0.86524063
76	0xbfa106a6	-1.2580154
77	0xbf0c75e9	-0.54867417
78	0x3e8f2a3a	0.27961904
79	0x3e92623f	0.2859058

l3.bias f4 [10]
0	0x3f0a6bf0	0.5407095
1	0xbe811d1b	-0.25217518
2	0x3ef52da8	0.47886395
3	0xbea0e2cc	-0.31423032
4	0xbea11535	-0.31461492
5	0xbdda2ed1	-0.10653461
6	0xbeff7cf7	-0.49900028
7	0xbf0487a7	-0.5176949
8	0x3f03a635	0.51425487
9	0xbeb96ad7	-0.36214325
