data.pth (torch, 6231 bytes, 6 tensors)

l1.weight f4 [8, 76]
0	0xbeaf165d	-0.3419675
1	0x3c95c27c	0.018281214
2	0xbdebc80e	-0.11512767
3	0x3f3fb12b	0.7487971
4	0xbd9ad91b	-0.07560941
5	0x3bfeceb0	0.007776104
6	0xbeaf164c	-0.341967
7	0x3d1edade	0.038782947
8	0xbe1122ac	-0.14173383
9	0x3d0686d6	0.032843433
10	0x3f2ef65d	0.6834467
11	0xbd6791c3	-0.056535494
12	0x3b9d8f50	0.004808344
13	0x3e4d0196	0.20020136
14	0x3c241108	0.010013826
15	0xbd1cd64e	-0.038290314
16	0xbe4443b4	-0.19166452
17	0x3eb5dbf0	0.35519361
18	0x3d113958	0.035455078
19	0xbeab7584	-0.33488095
20	0xbdafa0f0	-0.08575618
21	0xbe1dcd95	-0.15410455
22	0x3f1a0f11	0.6017924
23	0x3ea42d74	0.32065928
24	0xbeea0d4e	-0.45713276
25	0xbe82cc9c	-0.2554673
26	0xbeaf628a	-0.34254867
27	0xbeaf6211	-0.34254506
28	0xbe0170d4	-0.12640697
29	0xbe9e3035	-0.30896154
30	0xbe19ec05	-0.1503144
31	0xbab075f4	-0.0013462887
32	0xbe812dc4	-0.2523023
33	0xbd39f861	-0.04540289
34	0xbed5fe0c	-0.41795385
35	0xbe80b305	-0.2513658
36	0xbde264cb	-0.11054381
37	0xbdc6dac1	-0.09709693
38	0xbd2554b8	-0.040363997
39	0x3f114b4e	0.5675553
40	0xbec7346a	-0.38907176
41	0x3f3b088d	0.7305992
42	0xbe6c28ad	-0.23062392
43	0xbe71da69	-0.23618473
44	0xbe5c861d	-0.21535535
45	0x3d5b0207	0.05346873
46	0xbd793863	-0.06084479
47	0x3ea22b82	0.3167382
48	0x3e8173d4	0.25283682
49	0x3d6e1b86	0.058131717
50	0x3f250856	0.64465845
51	0xbeaf6b58	-0.34261584
52	0xbeb89dd4	-0.36057913
53	0xbe7bcc63	-0.24589686
54	0xbd41854b	-0.04724626
55	0x3e214f9d	0.15753026
56	0x3f0f2b86	0.55925786
57	0xbde06991	-0.10957635
58	0x3ecb8ef8	0.39757514
59	0xbe3d31ce	-0.1847603
60	0x3e0456f6	0.12923798
61	0x3f2a7a50	0.66592884
62	0x3eecdaa1	0.4626055
63	0x3e205f10	0.15661263
64	0x3e4ec177	0.20190988
65	0xbc19f7b0	-0.009397432
66	0xbe107835	-0.14108355
67	0xbe226001	-0.15856935
68	0x3f0c5983	0.54824084
69	0x3daca695	0.084302105
70	0x3ec65664	0.38737786
71	0xbeb3530b	-0.35024294
72	0xbb29cadd	-0.002590827
73	0xbee5def7	-0.4489667
74	0xbdc983be	-0.09839581
75	0xbd5bb536	-0.053639613
76	0xbef87089	-0.48523358
77	0x3e8e12ec	0.2774881
78	0x3f1fc086	0.6240314
79	0xbef69f75	-0.4816853
80	0x3eaa7baa	0.33297473
81	0x3e1deaf8	0.15421665
82	0xbef86c27	-0.48520014
83	0xbdf95b0d	-0.1217557
84	0x3ed6e531	0.41971734
85	0x3e796afd	0.24357219
86	0xbdcb8b41	-0.0993867
87	0xbd6047e7	-0.05475607
88	0x3e47c620	0.19509172
89	0x3dcc7dbd	0.0998492
90	0x3edcf2c9	0.4315398
91	0x3e747afa	0.23875037
92	0x3eba3549	0.36368778
93	0xbebab12b	-0.36463293
94	0x3e89e032	0.2692886
95	0x3e907314	0.28212798
96	0x3e9080a4	0.28223145
97	0x3e5300d0	0.20605779
98	0xbd7a34f5	-0.06108566
99	0x3dd6bc00	0.10485077
100	0xbf1f1f76	-0.6215738
101	0x3db0971c	0.08622572
102	0xbee56f8e	-0.44811672
103	0xbef85cf2	-0.48508412
104	0xbe9cea7a	-0.3064764
105	0x3f0d3443	0.5515787
106	0x3eecc7a7	0.46246073
107	0xbcfbe29b	-0.030747702
108	0x3ee9d7d5	0.4567248
109	0xbcbfc37e	-0.023408648
110	0x3ee1c1c5	0.44093147
111	0xbce07fbe	-0.027404662
112	0x3e84a781	0.25909045
113	0x3f05e96b	0.5230929
114	0x3ec6d6fc	0.38835895
115	0xbdc3bc6b	-0.09557422
116	0x3ec7eea1	0.39049247
117	0xbde0f17c	-0.109835595
118	0x3f149094	0.5803311
119	0xbdc55866	-0.09636001
120	0x3db6fe79	0.089352556
121	0xbbcf048a	-0.00631768
122	0x3edf3a2d	0.43599072
123	0x3f0b8ea4	0.5451453
124	0xbea58d34	-0.32334292
125	0x3eebb72f	0.46038195
126	0xbe326655	-0.17421849
127	0x3f729a44	0.9476664
128	0x3f662d98	0.8991332
129	0xbc727e90	-0.014800683
130	0xbdf9d306	-0.12198453
131	0xbe258c65	-0.16166838
132	0xbdd23b7d	-0.10265253
133	0xbed91009	-0.42395046
134	0xbe2791a6	-0.16364154
135	0x3f4d3f7a	0.8017498
136	0x3e62e515	0.221577
137	0xbed8e8c9	-0.423651
138	0xbf1a5dad	-0.6029919
139	0xbe5e2da2	-0.21697095
140	0xbe630b40	-0.2217226
141	0x3ed738d5	0.42035547
142	0x3e11f577	0.14253794
143	0x3d973894	0.07383838
144	0x3e2a2041	0.16613866
145	0xbf2885d6	-0.6582922
146	0xbccd0f88	-0.02503182
147	0x3eea1057	0.4571559
148	0x3e89b630	0.2689681
149	0xbe259a9c	-0.1617226
150	0x3ee8818f	0.45411345
151	0x3d671347	0.05641487
152	0xbf1d0879	-0.61341053
153	0x3efd9bc7	0.4953291
154	0xbeed2aca	-0.46321708
155	0xbe12f5d3	-0.14351587
156	0x3ef5ac4b	0.47983012
157	0x3e138060	0.1440444
158	0xbf24f536	-0.6443666
159	0xbd7e6f88	-0.062118083
160	0x3eb4cee8	0.35314107
161	0x3f07b819	0.53015286
162	0xbeb2f712	-0.34954125
163	0x3e0856f2	0.13314417
164	0x3e2e1c30	0.1700294
165	0x3f229647	0.63510555
166	0xbe20dfe0	-0.15710402
167	0x3dc12da0	0.094325304
168	0xbeda8845	-0.4268209
169	0x3dd0d068	0.10196
170	0x3f01d127	0.50709766
171	0x3eb5b403	0.354889
172	0x3dfba7af	0.122878425
173	0x3e3e888d	0.18606777
174	0x3de0d1c7	0.10977512
175	0xbf0f34d7	-0.5594
176	0x3e8a2b83	0.26986322
177	0x3f171855	0.590215
178	0x3f21b95b	0.63173455
179	0x3f92922d	1.1450859
180	0x3f263121	0.64918715
181	0xbf3c54f0	-0.73567104
182	0xbec86f5a	-0.39147455
183	0x3dc3fff2	0.09570302
184	0xbe2349c3	-0.15946107
185	0x3f3dba87	0.74112743
186	0xbe0d6f44	-0.13811976
187	0x3e781584	0.24226958
188	0x3f219e60	0.63132286
189	0x3eb76948	0.3582251
190	0x3f351708	0.7073827
191	0xbeb55167	-0.35413668
192	0xbe21bfb8	-0.15795791
193	0xbecf6def	-0.4051356
194	0xbf3d6a0d	-0.73989946
195	0x3f5b0935	0.85560924
196	0x3e04676c	0.12930077
197	0x3e8e028a	0.27736312
198	0xbe813d0e	-0.25241894
199	0x3ec82ef0	0.3909831
200	0xbeabfed3	-0.33592853
201	0xbea07620	-0.31340122
202	0xbea6b079	-0.32556513
203	0xbe57a35c	-0.2105841
204	0x3e2937dc	0.16525215
205	0x3eba3b73	0.3637348
206	0x3edae539	0.42753008
207	0xbc7944ef	-0.015214189
208	0xbe221ea7	-0.15832005
209	0x3f61d6a5	0.88218147
210	0xbe7bf3af	-0.24604677
211	0xbec3722c	-0.38173044
212	0x3f131005	0.5744632
213	0xbf1c4fee	-0.61059463
214	0xbf097909	-0.5370031
215	0x3e99c55d	0.3003339
216	0xbde3a395	-0.11115185
217	0xbe4e5740	-0.2015047
218	0x3e76f77b	0.24117844
219	0x3ec7414d	0.38917008
220	0xbdea68e4	-0.114457875
221	0x3d346306	0.04403975
222	0xbec0d562	-0.37662798
223	0xbe8345c4	-0.25639164
224	0x3ed77e6e	0.42088646
225	0xbdfb731d	-0.122778155
226	0xbe5cfa79	-0.21579923
227	0x3f061574	0.52376485
228	0xbf2e156f	-0.68001455
229	0x3ec154ca	0.3776
230	0x3ee81631	0.4532943
231	0x3f070a31	0.52749926
232	0x3ec6e3b8	0.3884561
233	0xbdd3e3b4	-0.10346165
234	0xbf2e1881	-0.6800614
235	0xbdb8e9ff	-0.09029006
236	0x3ebff43d	0.37491027
237	0x3efa01c1	0.48829463
238	0xbdcfd8c0	-0.10148764
239	0x3ef6fe49	0.4824088
240	0xbe09c8e5	-0.13455541
241	0x3e98455d	0.2974042
242	0x3e575161	0.21027137
243	0xbdbdf75c	-0.09275696
244	0x3ec0431d	0.37551203
245	0xbe91168d	-0.28337517
246	0x3eaaa58e	0.33329433
247	0x3d2eff30	0.042723835
248	0xbe6d88a4	-0.23196656
249	0x3ea331eb	0.31874022
250	0xbf190072	-0.59766304
251	0xbdfd4b72	-0.12367906
252	0x3f846eee	1.0346353
253	0x3f23d7be	0.6400107
254	0x3f376c95	0.7165006
255	0xbf245727	-0.64195484

l1.bias f4 [8]
0	0x3eaf152f	0.3419585
1	0x3ef8552a	0.48502475
2	0x3f5edb13	0.8705303
3	0x3f2e0e93	0.6799099
4	0x3f4e508e	0.80591667
5	0x3f66adee	0.90109146
6	0x3f1c5a80	0.6107559
7	0x3f1c4fde	0.6105937

l2.weight f4 [8, 8]
0	0x3ef9c2e7	0.4878151
1	0x3f95c77d	1.1701504
2	0x3e38a467	0.18031465
3	0xbd86abad	-0.06575713
4	0xbf9e496a	-1.2366154
5	0x3f821560	1.0162773
6	0x3f563368	0.8367219
7	0x3f1ea27f	0.619667
8	0x3ede4b44	0.43416798
9	0xbf65b3eb	-0.8972766
10	0x3f9bf1af	1.2183131
11	0x3f8e5a6e	1.1121347
12	0xbedb111c	-0.4278649
13	0x3f0880ed	0.53321725
14	0x3fb2f557	1.3981122
15	0xbf4cb11c	-0.7995775
16	0x3f51b337	0.81914085
17	0xbe028462	-0.12745813
18	0xbe9650a2	-0.29358393
19	0x3f93c7d5	1.1545359
20	0x3fa1bcb0	1.2635708
21	0xbc951a91	-0.018201144
22	0x3f677448	0.90411806
23	0x3ee50914	0.4473349
24	0x3f9e1095	1.234881
25	0xbee9d3f7	-0.4566953
26	0x3f152bde	0.5827006
27	0x3f65e260	0.89798546
28	0x3ef045c0	0.46928215
29	0x3fe07bde	1.7537801
30	0xbf6878da	-0.90809405
31	0xbf6592bb	-0.8967702
32	0xbf7555bb	-0.9583394
33	0x3fb4ecea	1.41348
34	0x3f0813bc	0.5315511
35	0x3fbf64a0	1.4952583
36	0x3f2f2c1d	0.68426687
37	0x3f6fed31	0.937213
38	0xbfa490bf	-1.2856673
39	0xbf15c007	-0.58496135
40	0x3da13175	0.07870761
41	0xbf3d9a97	-0.7406401
42	0xbf8f640a	-1.1202404
43	0xbf0c7e87	-0.54880565
44	0x3fdd7634	1.7301698
45	0x3f95105d	1.1645619
46	0x3ef4a9af	0.47785708
47	0x3fad3e6c	1.3534675
48	0x3ec6d525	0.3883449
49	0xbf6828f6	-0.906875
50	0xbe19147e	-0.14949223
51	0xbfbb57c1	-1.4636155
52	0x3ef53c44	0.47897542
53	0x3e9fa467	0.31180117
54	0x3cfc2645	0.030779967
55	0x3f262fb4	0.6491654
56	0xbf491619	-0.78549343
57	0xbeabb358	-0.33535266
58	0x3fea2186	1.829148
59	0x3deccdc6	0.11562686
60	0xbd286d6b	-0.041119974
61	0xbf129178	-0.5725322
62	0x3fcba46a	1.590955
63	0x3e690cc0	0.2275877

l2.bias f4 [8]
0	0x3eccd38d	0.4000515
1	0x3eaabb8e	0.33346218
2	0xbec4674f	-0.38360068
3	0x3f11c421	0.56939894
4	0xbce3de58	-0.027815983
5	0x3f757993	0.9588863
6	0x3e66525b	0.22492354
7	0x3f82f3d7	1.0230664

l3.weight f4 [10, 8]
0	0xbf120d4d	-0.57051545
1	0xbfe1e99c	-1.7649417
2	0x3dd5b480	0.10434818
3	0x3ed31aa1	0.41231254
4	0x3eda613c	0.4265231
5	0x3eee7605	0.46574417
6	0xbfaeaea4	-1.3647046
7	0xbf835f96	-1.0263546
8	0xbf13e0eb	-0.5776507
9	0x3f30771b	0.6893174
10	0x3f20a208	0.6274724
11	0xbed2987d	-0.41131964
12	0xbff2c6c9	-1.8966914
13	0x3e903386	0.2816431
14	0xbfc2fcd1	-1.5233403
15	0xbcca6df1	-0.024710627
16	0xbf659f98	-0.89696646
17	0xbf5f56e6	-0.8724197
18	0xbdb41e11	-0.08794797
19	0xbfb99aec	-1.4500403
20	0xbf8e0723	-1.1095928
21	0x3f6199a0	0.8812504
22	0x3f866020	1.0498085
23	0x3ee4e935	0.44709173
24	0xbd22ffab	-0.039794605
25	0x3f3c5f92	0.7358333
26	0xc0027baf	-2.038799
27	0x3db89057	0.09011906
28	0xc00cef9f	-2.2021253
29	0xbf7ce181	-0.9878159
30	0xbf91a12d	-1.1377312
31	0x3f8d1dd0	1.1024723
32	0xc00b329a	-2.1749635
33	0x3c83ada2	0.016074006
34	0x3d8ca874	0.068680674
35	0x3f196615	0.5992139
36	0x3e82fd18	0.2558372
37	0xbec6ffb7	-0.3886697
38	0x3c062fed	0.008190137
39	0x3e023f49	0.12719454
40	0x3ed285a1	0.41117576
41	0xbf18c74d	-0.5967911
42	0x3d7fe95e	0.062478416
43	0x3ed3b262	0.41347033
44	0xbfc77b3e	-1.5584486
45	0x3ed16e0f	0.4090428
46	0x3f2b1084	0.66822076
47	0xbfc15ad2	-1.5105841
48	0x3f969bf9	1.1766349
49	0xbfcc7fef	-1.5976542
50	0xbf81e974	-1.0149369
51	0xbf42172b	-0.758166
52	0xbf121cb7	-0.57075065
53	0x3e4c05fd	0.1992416
54	0xbfa48e20	-1.2855873
55	0x3f0c94e2	0.5491468
56	0xbca81dee	-0.020522084
57	0x3f05284c	0.52014613
58	0x3f278179	0.65431935
59	0xbfc4d812	-1.537844
60	0xbec7fa71	-0.3905826
61	0xbfb34f0e	-1.40085
62	0xbfa12d15	-1.2591883
63	0x3eb03d03	0.34421548
64	0x3e14cb9a	0.14530793
65	0xbf2034f5	-0.62580806
66	0xbede7766	-0.4345047
67	0x3ed122e1	0.40846923
68	0x3f39dd7d	0.7260359
69	0xbfab3c8e	-1.3377855
70	0xbf5f0286	-0.87113225
71	0xbfc4815a	-1.5351975
72	0x3eab7546	0.3348791
73	0x3f07117c	0.52761054
74	0xbfa0e116	-1.2568691
75	0x3f23331e	0.63749874
76	0xbe2812d4	-0.16413432
77	0xbf9513a2	-1.1646616
78	0xbf9f6c6b	-1.2454962
79	0xbd711008	-0.05885318

l3.bias f4 [10]
0	0xbd95e063	-0.07318189
1	0xbefa9b86	-0.4894678
2	0xbe21b5e1	-0.15792038
3	0xbd90264e	-0.07038556
4	0x3d8ec8ab	0.06971868
5	0xbe109cb9	-0.14122285
6	0x3efaccf3	0.4898449
7	0x3dc4f94e	0.096178636
8	0xbe6ce5c3	-0.23134522
9	0xbe024e43	-0.12725167
